…
│ (BatchNormalizatio… │ 32)               │            │                   │
├─────────────────────┼───────────────────┼────────────┼───────────────────┤
│ activation_9        │ (None, 10, 10,    │          0 │ batch_normalizat… │
│ (Activation)        │ 32)               │            │                   │
├─────────────────────┼───────────────────┼────────────┼───────────────────┤
│ activation_13       │ (None, 10, 10,    │          0 │ batch_normalizat… │
│ (Activation)        │ 32)               │            │                   │
├─────────────────────┼───────────────────┼────────────┼───────────────────┤
│ max_pooling2d_5     │ (None, 5, 5, 32)  │          0 │ activation_9[0][… │
│ (MaxPooling2D)      │                   │            │                   │
├─────────────────────┼───────────────────┼────────────┼───────────────────┤
│ average_pooling2d_5 │ (None, 5, 5, 32)  │          0 │ activation_13[0]… │
│ (AveragePooling2D)  │                   │            │                   │
├─────────────────────┼───────────────────┼────────────┼───────────────────┤
│ input_layer_4       │ (None, 8)         │          0 │ -                 │
│ (InputLayer)        │                   │            │                   │
├─────────────────────┼───────────────────┼────────────┼───────────────────┤
│ dropout_70          │ (None, 5, 5, 32)  │          0 │ max_pooling2d_5[… │
│ (Dropout)           │                   │            │                   │
├─────────────────────┼───────────────────┼────────────┼───────────────────┤
│ dropout_74          │ (None, 5, 5, 32)  │          0 │ average_pooling2… │
│ (Dropout)           │                   │            │                   │
├─────────────────────┼───────────────────┼────────────┼───────────────────┤
│ dense_67 (Dense)    │ (None, 512)       │      4,608 │ input_layer_4[0]… │
├─────────────────────┼───────────────────┼────────────┼───────────────────┤
│ dense_74 (Dense)    │ (None, 512)       │      4,608 │ input_layer_4[0]… │
├─────────────────────┼───────────────────┼────────────┼───────────────────┤
│ conv2d_10 (Conv2D)  │ (None, 5, 5, 64)  │     18,496 │ dropout_70[0][0]  │
├─────────────────────┼───────────────────┼────────────┼───────────────────┤
│ conv2d_14 (Conv2D)  │ (None, 5, 5, 64)  │     51,264 │ dropout_74[0][0]  │
├─────────────────────┼───────────────────┼────────────┼───────────────────┤
│ batch_normalizatio… │ (None, 512)       │      2,048 │ dense_67[0][0]    │
│ (BatchNormalizatio… │                   │            │                   │
├─────────────────────┼───────────────────┼────────────┼───────────────────┤
│ batch_normalizatio… │ (None, 512)       │      2,048 │ dense_74[0][0]    │
│ (BatchNormalizatio… │                   │            │                   │
├─────────────────────┼───────────────────┼────────────┼───────────────────┤
│ batch_normalizatio… │ (None, 5, 5, 64)  │        256 │ conv2d_10[0][0]   │
│ (BatchNormalizatio… │                   │            │                   │
├─────────────────────┼───────────────────┼────────────┼───────────────────┤
│ batch_normalizatio… │ (None, 5, 5, 64)  │        256 │ conv2d_14[0][0]   │
│ (BatchNormalizatio… │                   │            │                   │
├─────────────────────┼───────────────────┼────────────┼───────────────────┤
│ dropout_56          │ (None, 512)       │          0 │ batch_normalizat… │
│ (Dropout)           │                   │            │                   │
├─────────────────────┼───────────────────┼────────────┼───────────────────┤
│ dropout_63          │ (None, 512)       │          0 │ batch_normalizat… │
│ (Dropout)           │                   │            │                   │
├─────────────────────┼───────────────────┼────────────┼───────────────────┤
│ activation_10       │ (None, 5, 5, 64)  │          0 │ batch_normalizat… │
│ (Activation)        │                   │            │                   │
├─────────────────────┼───────────────────┼────────────┼───────────────────┤
│ activation_14       │ (None, 5, 5, 64)  │          0 │ batch_normalizat… │
│ (Activation)        │                   │            │                   │
├─────────────────────┼───────────────────┼────────────┼───────────────────┤
│ dense_68 (Dense)    │ (None, 256)       │    131,328 │ dropout_56[0][0]  │
├─────────────────────┼───────────────────┼────────────┼───────────────────┤
│ dense_75 (Dense)    │ (None, 256)       │    131,328 │ dropout_63[0][0]  │
├─────────────────────┼───────────────────┼────────────┼───────────────────┤
│ max_pooling2d_6     │ (None, 2, 2, 64)  │          0 │ activation_10[0]… │
│ (MaxPooling2D)      │                   │            │                   │
├─────────────────────┼───────────────────┼────────────┼───────────────────┤
│ average_pooling2d_6 │ (None, 2, 2, 64)  │          0 │ activation_14[0]… │
│ (AveragePooling2D)  │                   │            │                   │
├─────────────────────┼───────────────────┼────────────┼───────────────────┤
│ batch_normalizatio… │ (None, 256)       │      1,024 │ dense_68[0][0]    │
│ (BatchNormalizatio… │                   │            │                   │
├─────────────────────┼───────────────────┼────────────┼───────────────────┤
│ batch_normalizatio… │ (None, 256)       │      1,024 │ dense_75[0][0]    │
│ (BatchNormalizatio… │                   │            │                   │
├─────────────────────┼───────────────────┼────────────┼───────────────────┤
│ dropout_71          │ (None, 2, 2, 64)  │          0 │ max_pooling2d_6[… │
│ (Dropout)           │                   │            │                   │
├─────────────────────┼───────────────────┼────────────┼───────────────────┤
│ dropout_75          │ (None, 2, 2, 64)  │          0 │ average_pooling2… │
│ (Dropout)           │                   │            │                   │
├─────────────────────┼───────────────────┼────────────┼───────────────────┤
│ dropout_57          │ (None, 256)       │          0 │ batch_normalizat… │
│ (Dropout)           │                   │            │                   │
├─────────────────────┼───────────────────┼────────────┼───────────────────┤
│ dropout_64          │ (None, 256)       │          0 │ batch_normalizat… │
│ (Dropout)           │                   │            │                   │
├─────────────────────┼───────────────────┼────────────┼───────────────────┤
│ conv2d_11 (Conv2D)  │ (None, 2, 2, 64)  │     36,928 │ dropout_71[0][0]  │
├─────────────────────┼───────────────────┼────────────┼───────────────────┤
│ conv2d_15 (Conv2D)  │ (None, 2, 2, 64)  │    102,464 │ dropout_75[0][0]  │
├─────────────────────┼───────────────────┼────────────┼───────────────────┤
│ dense_69 (Dense)    │ (None, 128)       │     32,896 │ dropout_57[0][0]  │
├─────────────────────┼───────────────────┼────────────┼───────────────────┤
│ dense_76 (Dense)    │ (None, 128)       │     32,896 │ dropout_64[0][0]  │
├─────────────────────┼───────────────────┼────────────┼───────────────────┤
│ batch_normalizatio… │ (None, 2, 2, 64)  │        256 │ conv2d_11[0][0]   │
│ (BatchNormalizatio… │                   │            │                   │
├─────────────────────┼───────────────────┼────────────┼───────────────────┤
│ batch_normalizatio… │ (None, 2, 2, 64)  │        256 │ conv2d_15[0][0]   │
│ (BatchNormalizatio… │                   │            │                   │
├─────────────────────┼───────────────────┼────────────┼───────────────────┤
│ batch_normalizatio… │ (None, 128)       │        512 │ dense_69[0][0]    │
│ (BatchNormalizatio… │                   │            │                   │
├─────────────────────┼───────────────────┼────────────┼───────────────────┤
│ batch_normalizatio… │ (None, 128)       │        512 │ dense_76[0][0]    │
│ (BatchNormalizatio… │                   │            │                   │
├─────────────────────┼───────────────────┼────────────┼───────────────────┤
│ activation_11       │ (None, 2, 2, 64)  │          0 │ batch_normalizat… │
│ (Activation)        │                   │            │                   │
├─────────────────────┼───────────────────┼────────────┼───────────────────┤
│ activation_15       │ (None, 2, 2, 64)  │          0 │ batch_normalizat… │
│ (Activation)        │                   │            │                   │
├─────────────────────┼───────────────────┼────────────┼───────────────────┤
│ dropout_58          │ (None, 128)       │          0 │ batch_normalizat… │
│ (Dropout)           │                   │            │                   │
├─────────────────────┼───────────────────┼────────────┼───────────────────┤
│ dropout_65          │ (None, 128)       │          0 │ batch_normalizat… │
│ (Dropout)           │                   │            │                   │
├─────────────────────┼───────────────────┼────────────┼───────────────────┤
│ max_pooling2d_7     │ (None, 1, 1, 64)  │          0 │ activation_11[0]… │
│ (MaxPooling2D)      │                   │            │                   │
├─────────────────────┼───────────────────┼────────────┼───────────────────┤
│ average_pooling2d_7 │ (None, 1, 1, 64)  │          0 │ activation_15[0]… │
│ (AveragePooling2D)  │                   │            │                   │
├─────────────────────┼───────────────────┼────────────┼───────────────────┤
│ dense_70 (Dense)    │ (None, 64)        │      8,256 │ dropout_58[0][0]  │
├─────────────────────┼───────────────────┼────────────┼───────────────────┤
│ dense_77 (Dense)    │ (None, 64)        │      8,256 │ dropout_65[0][0]  │
├─────────────────────┼───────────────────┼────────────┼───────────────────┤
│ dropout_72          │ (None, 1, 1, 64)  │          0 │ max_pooling2d_7[… │
│ (Dropout)           │                   │            │                   │
├─────────────────────┼───────────────────┼────────────┼───────────────────┤
│ dropout_76          │ (None, 1, 1, 64)  │          0 │ average_pooling2… │
│ (Dropout)           │                   │            │                   │
├─────────────────────┼───────────────────┼────────────┼───────────────────┤
│ batch_normalizatio… │ (None, 64)        │        256 │ dense_70[0][0]    │
│ (BatchNormalizatio… │                   │            │                   │
├─────────────────────┼───────────────────┼────────────┼───────────────────┤
│ batch_normalizatio… │ (None, 64)        │        256 │ dense_77[0][0]    │
│ (BatchNormalizatio… │                   │            │                   │
├─────────────────────┼───────────────────┼────────────┼───────────────────┤
│ concatenate_2       │ (None, 2, 1, 64)  │          0 │ dropout_72[0][0], │
│ (Concatenate)       │                   │            │ dropout_76[0][0]  │
├─────────────────────┼───────────────────┼────────────┼───────────────────┤
│ dropout_59          │ (None, 64)        │          0 │ batch_normalizat… │
│ (Dropout)           │                   │            │                   │
├─────────────────────┼───────────────────┼────────────┼───────────────────┤
│ dropout_66          │ (None, 64)        │          0 │ batch_normalizat… │
│ (Dropout)           │                   │            │                   │
├─────────────────────┼───────────────────┼────────────┼───────────────────┤
│ flatten_1 (Flatten) │ (None, 128)       │          0 │ concatenate_2[0]… │
├─────────────────────┼───────────────────┼────────────┼───────────────────┤
│ dense_71 (Dense)    │ (None, 32)        │      2,080 │ dropout_59[0][0]  │
├─────────────────────┼───────────────────┼────────────┼───────────────────┤
│ dense_78 (Dense)    │ (None, 32)        │      2,080 │ dropout_66[0][0]  │
├─────────────────────┼───────────────────┼────────────┼───────────────────┤
│ dropout_78          │ (None, 128)       │          0 │ flatten_1[0][0]   │
│ (Dropout)           │                   │            │                   │
├─────────────────────┼───────────────────┼────────────┼───────────────────┤
│ batch_normalizatio… │ (None, 32)        │        128 │ dense_71[0][0]    │
│ (BatchNormalizatio… │                   │            │                   │
├─────────────────────┼───────────────────┼────────────┼───────────────────┤
│ batch_normalizatio… │ (None, 32)        │        128 │ dense_78[0][0]    │
│ (BatchNormalizatio… │                   │            │                   │
├─────────────────────┼───────────────────┼────────────┼───────────────────┤
│ dense_82 (Dense)    │ (None, 128)       │     16,512 │ dropout_78[0][0]  │
├─────────────────────┼───────────────────┼────────────┼───────────────────┤
│ dropout_60          │ (None, 32)        │          0 │ batch_normalizat… │
│ (Dropout)           │                   │            │                   │
├─────────────────────┼───────────────────┼────────────┼───────────────────┤
│ dropout_67          │ (None, 32)        │          0 │ batch_normalizat… │
│ (Dropout)           │                   │            │                   │
├─────────────────────┼───────────────────┼────────────┼───────────────────┤
│ dropout_79          │ (None, 128)       │          0 │ dense_82[0][0]    │
│ (Dropout)           │                   │            │                   │
├─────────────────────┼───────────────────┼────────────┼───────────────────┤
│ dense_72 (Dense)    │ (None, 16)        │        528 │ dropout_60[0][0]  │
├─────────────────────┼───────────────────┼────────────┼───────────────────┤
│ dense_79 (Dense)    │ (None, 16)        │        528 │ dropout_67[0][0]  │
├─────────────────────┼───────────────────┼────────────┼───────────────────┤
│ dense_83 (Dense)    │ (None, 64)        │      8,256 │ dropout_79[0][0]  │
├─────────────────────┼───────────────────┼────────────┼───────────────────┤
│ batch_normalizatio… │ (None, 16)        │         64 │ dense_72[0][0]    │
│ (BatchNormalizatio… │                   │            │                   │
├─────────────────────┼───────────────────┼────────────┼───────────────────┤
│ batch_normalizatio… │ (None, 16)        │         64 │ dense_79[0][0]    │
│ (BatchNormalizatio… │                   │            │                   │
├─────────────────────┼───────────────────┼────────────┼───────────────────┤
│ dropout_80          │ (None, 64)        │          0 │ dense_83[0][0]    │
│ (Dropout)           │                   │            │                   │
├─────────────────────┼───────────────────┼────────────┼───────────────────┤
│ dropout_61          │ (None, 16)        │          0 │ batch_normalizat… │
│ (Dropout)           │                   │            │                   │
├─────────────────────┼───────────────────┼────────────┼───────────────────┤
│ dropout_68          │ (None, 16)        │          0 │ batch_normalizat… │
│ (Dropout)           │                   │            │                   │
├─────────────────────┼───────────────────┼────────────┼───────────────────┤
│ dense_84 (Dense)    │ (None, 32)        │      2,080 │ dropout_80[0][0]  │
├─────────────────────┼───────────────────┼────────────┼───────────────────┤
│ concatenate_1       │ (None, 32)        │          0 │ dropout_61[0][0], │
│ (Concatenate)       │                   │            │ dropout_68[0][0]  │
├─────────────────────┼───────────────────┼────────────┼───────────────────┤
│ dropout_81          │ (None, 32)        │          0 │ dense_84[0][0]    │
│ (Dropout)           │                   │            │                   │
├─────────────────────┼───────────────────┼────────────┼───────────────────┤
│ concatenate_5       │ (None, 64)        │          0 │ concatenate_1[0]… │
│ (Concatenate)       │                   │            │ dropout_81[0][0]  │
├─────────────────────┼───────────────────┼────────────┼───────────────────┤
│ dense_93 (Dense)    │ (None, 2)         │        130 │ concatenate_5[0]… │
├─────────────────────┼───────────────────┼────────────┼───────────────────┤
│ get_item_2          │ (None, 1)         │          0 │ dense_93[0][0]    │
│ (GetItem)           │                   │            │                   │
├─────────────────────┼───────────────────┼────────────┼───────────────────┤
│ get_item_3          │ (None, 1)         │          0 │ dense_93[0][0]    │
│ (GetItem)           │                   │            │                   │
├─────────────────────┼───────────────────┼────────────┼───────────────────┤
│ multiply_15         │ (None, 32)        │          0 │ get_item_2[0][0], │
│ (Multiply)          │                   │            │ concatenate_1[0]… │
├─────────────────────┼───────────────────┼────────────┼───────────────────┤
│ multiply_16         │ (None, 32)        │          0 │ get_item_3[0][0], │
│ (Multiply)          │                   │            │ dropout_81[0][0]  │
├─────────────────────┼───────────────────┼────────────┼───────────────────┤
│ add_7 (Add)         │ (None, 32)        │          0 │ multiply_15[0][0… │
│                     │                   │            │ multiply_16[0][0] │
├─────────────────────┼───────────────────┼────────────┼───────────────────┤
│ dense_94 (Dense)    │ (None, 48)        │      1,584 │ add_7[0][0]       │
├─────────────────────┼───────────────────┼────────────┼───────────────────┤
│ dense_95 (Dense)    │ (None, 24)        │      1,176 │ dense_94[0][0]    │
├─────────────────────┼───────────────────┼────────────┼───────────────────┤
│ dense_96 (Dense)    │ (None, 1)         │         25 │ dense_95[0][0]    │
└─────────────────────┴───────────────────┴────────────┴───────────────────┘
 Total params: 626,915 (2.39 MB)
 Trainable params: 622,179 (2.37 MB)
 Non-trainable params: 4,736 (18.50 KB)

