…
│ (BatchNormalizatio… │ 32)               │            │                   │
├─────────────────────┼───────────────────┼────────────┼───────────────────┤
│ activation_1        │ (None, 10, 10,    │          0 │ batch_normalizat… │
│ (Activation)        │ 32)               │            │                   │
├─────────────────────┼───────────────────┼────────────┼───────────────────┤
│ activation_4        │ (None, 10, 10,    │          0 │ batch_normalizat… │
│ (Activation)        │ 32)               │            │                   │
├─────────────────────┼───────────────────┼────────────┼───────────────────┤
│ max_pooling2d_1     │ (None, 5, 5, 32)  │          0 │ activation_1[0][… │
│ (MaxPooling2D)      │                   │            │                   │
├─────────────────────┼───────────────────┼────────────┼───────────────────┤
│ average_pooling2d_1 │ (None, 5, 5, 32)  │          0 │ activation_4[0][… │
│ (AveragePooling2D)  │                   │            │                   │
├─────────────────────┼───────────────────┼────────────┼───────────────────┤
│ conv2d_2 (Conv2D)   │ (None, 5, 5, 64)  │     18,496 │ max_pooling2d_1[… │
├─────────────────────┼───────────────────┼────────────┼───────────────────┤
│ conv2d_5 (Conv2D)   │ (None, 5, 5, 64)  │     51,264 │ average_pooling2… │
├─────────────────────┼───────────────────┼────────────┼───────────────────┤
│ batch_normalizatio… │ (None, 5, 5, 64)  │        256 │ conv2d_2[0][0]    │
│ (BatchNormalizatio… │                   │            │                   │
├─────────────────────┼───────────────────┼────────────┼───────────────────┤
│ batch_normalizatio… │ (None, 5, 5, 64)  │        256 │ conv2d_5[0][0]    │
│ (BatchNormalizatio… │                   │            │                   │
├─────────────────────┼───────────────────┼────────────┼───────────────────┤
│ activation_2        │ (None, 5, 5, 64)  │          0 │ batch_normalizat… │
│ (Activation)        │                   │            │                   │
├─────────────────────┼───────────────────┼────────────┼───────────────────┤
│ activation_5        │ (None, 5, 5, 64)  │          0 │ batch_normalizat… │
│ (Activation)        │                   │            │                   │
├─────────────────────┼───────────────────┼────────────┼───────────────────┤
│ max_pooling2d_2     │ (None, 2, 2, 64)  │          0 │ activation_2[0][… │
│ (MaxPooling2D)      │                   │            │                   │
├─────────────────────┼───────────────────┼────────────┼───────────────────┤
│ average_pooling2d_2 │ (None, 2, 2, 64)  │          0 │ activation_5[0][… │
│ (AveragePooling2D)  │                   │            │                   │
├─────────────────────┼───────────────────┼────────────┼───────────────────┤
│ concatenate         │ (None, 4, 2, 64)  │          0 │ max_pooling2d_2[… │
│ (Concatenate)       │                   │            │ average_pooling2… │
├─────────────────────┼───────────────────┼────────────┼───────────────────┤
│ flatten (Flatten)   │ (None, 512)       │          0 │ concatenate[0][0] │
├─────────────────────┼───────────────────┼────────────┼───────────────────┤
│ dense (Dense)       │ (None, 256)       │    131,328 │ flatten[0][0]     │
├─────────────────────┼───────────────────┼────────────┼───────────────────┤
│ dense_1 (Dense)     │ (None, 128)       │     32,896 │ dense[0][0]       │
├─────────────────────┼───────────────────┼────────────┼───────────────────┤
│ dense_2 (Dense)     │ (None, 32)        │      4,128 │ dense_1[0][0]     │
├─────────────────────┼───────────────────┼────────────┼───────────────────┤
│ dense_3 (Dense)     │ (None, 3)         │         99 │ dense_2[0][0]     │
└─────────────────────┴───────────────────┴────────────┴───────────────────┘
 Total params: 258,243 (1008.76 KB)
 Trainable params: 257,795 (1007.01 KB)
 Non-trainable params: 448 (1.75 KB)

